…
	Ransom      1000
	Worm        1000
	Backdoor    1000
	PUA         1000
	Virus       1000
================================================================================


================================================================================
Begin training...
================================================================================
Using TensorFlow backend.
_________________________________________________________________
Layer (type)                 Output Shape              Param #   
=================================================================
dense_1 (Dense)              (None, 320)               102720    
_________________________________________________________________
dense_2 (Dense)              (None, 640)               205440    
_________________________________________________________________
dense_3 (Dense)              (None, 640)               410240    
_________________________________________________________________
dense_4 (Dense)              (None, 640)               410240    
_________________________________________________________________
dense_5 (Dense)              (None, 640)               410240    
_________________________________________________________________
dense_6 (Dense)              (None, 640)               410240    
_________________________________________________________________
dense_7 (Dense)              (None, 640)               410240    
_________________________________________________________________
dense_8 (Dense)              (None, 640)               410240    
_________________________________________________________________
dense_9 (Dense)              (None, 640)               410240    
_________________________________________________________________
dense_10 (Dense)             (None, 640)               410240    
_________________________________________________________________
dense_11 (Dense)             (None, 640)               410240    
_________________________________________________________________
dense_12 (Dense)             (None, 160)               102560    
_________________________________________________________________
dense_13 (Dense)             (None, 6)                 966       
=================================================================
Total params: 4,103,846
Trainable params: 4,103,846
Non-trainable params: 0
_________________________________________________________________
Epoch 1/200
2018-10-28 22:11:32.952143: I tensorflow/core/platform/cpu_feature_guard.cc:141] Your CPU supports instructions that this TensorFlow binary was not compiled to use: AVX2 FMA
…
