…
	PUA         1000
	Trojan      1000
	Backdoor    1000
	Ransom      1000
	Virus       1000
================================================================================


================================================================================
Begin training...
================================================================================
Using TensorFlow backend.
_________________________________________________________________
Layer (type)                 Output Shape              Param #   
=================================================================
dense_1 (Dense)              (None, 1024)              1049600   
_________________________________________________________________
dense_2 (Dense)              (None, 2048)              2099200   
_________________________________________________________________
dense_3 (Dense)              (None, 2048)              4196352   
_________________________________________________________________
dense_4 (Dense)              (None, 2048)              4196352   
_________________________________________________________________
dense_5 (Dense)              (None, 2048)              4196352   
_________________________________________________________________
dense_6 (Dense)              (None, 2048)              4196352   
_________________________________________________________________
dense_7 (Dense)              (None, 2048)              4196352   
_________________________________________________________________
dense_8 (Dense)              (None, 2048)              4196352   
_________________________________________________________________
dense_9 (Dense)              (None, 2048)              4196352   
_________________________________________________________________
dense_10 (Dense)             (None, 2048)              4196352   
_________________________________________________________________
dense_11 (Dense)             (None, 2048)              4196352   
_________________________________________________________________
dense_12 (Dense)             (None, 512)               1049088   
_________________________________________________________________
dense_13 (Dense)             (None, 6)                 3078      
=================================================================
Total params: 41,968,134
Trainable params: 41,968,134
Non-trainable params: 0
_________________________________________________________________
Epoch 1/200
2018-10-28 20:56:08.073427: I tensorflow/core/platform/cpu_feature_guard.cc:141] Your CPU supports instructions that this TensorFlow binary was not compiled to use: AVX2 FMA
…
