…
	Ransom      1000
	Virus       1000
	Trojan      1000
	PUA         1000
	Backdoor    1000
================================================================================


================================================================================
Begin training...
================================================================================
Using TensorFlow backend.
_________________________________________________________________
Layer (type)                 Output Shape              Param #   
=================================================================
input_1 (InputLayer)         (None, 1024, 1)           0         
_________________________________________________________________
conv1d_1 (Conv1D)            (None, 897, 100)          12900     
_________________________________________________________________
max_pooling1d_1 (MaxPooling1 (None, 89, 100)           0         
_________________________________________________________________
conv1d_2 (Conv1D)            (None, 56, 100)           340100    
_________________________________________________________________
max_pooling1d_2 (MaxPooling1 (None, 28, 100)           0         
_________________________________________________________________
conv1d_3 (Conv1D)            (None, 27, 100)           20100     
_________________________________________________________________
max_pooling1d_3 (MaxPooling1 (None, 13, 100)           0         
_________________________________________________________________
flatten_1 (Flatten)          (None, 1300)              0         
_________________________________________________________________
dense_1 (Dense)              (None, 256)               333056    
_________________________________________________________________
dense_2 (Dense)              (None, 128)               32896     
_________________________________________________________________
dense_3 (Dense)              (None, 64)                8256      
_________________________________________________________________
dense_4 (Dense)              (None, 6)                 390       
=================================================================
Total params: 747,698
Trainable params: 747,698
Non-trainable params: 0
_________________________________________________________________
Epoch 1/200
2018-10-28 23:10:17.997377: I tensorflow/core/platform/cpu_feature_guard.cc:141] Your CPU supports instructions that this TensorFlow binary was not compiled to use: AVX2 FMA
2018-10-28 23:10:20.191904: I tensorflow/stream_executor/cuda/cuda_gpu_executor.cc:897] successful NUMA node read from SysFS had negative value (-1), but there must be at least one NUMA node, so returning NUMA node zero
…
