…
	Worm        1000
	Trojan      1000
	Virus       1000
	Ransom      1000
	PUA         1000
================================================================================


================================================================================
Begin training...
================================================================================
Using TensorFlow backend.
_________________________________________________________________
Layer (type)                 Output Shape              Param #   
=================================================================
input_1 (InputLayer)         (None, 320, 1)            0         
_________________________________________________________________
conv1d_1 (Conv1D)            (None, 281, 100)          4100      
_________________________________________________________________
max_pooling1d_1 (MaxPooling1 (None, 28, 100)           0         
_________________________________________________________________
conv1d_2 (Conv1D)            (None, 19, 100)           100100    
_________________________________________________________________
max_pooling1d_2 (MaxPooling1 (None, 9, 100)            0         
_________________________________________________________________
conv1d_3 (Conv1D)            (None, 8, 100)            20100     
_________________________________________________________________
max_pooling1d_3 (MaxPooling1 (None, 4, 100)            0         
_________________________________________________________________
flatten_1 (Flatten)          (None, 400)               0         
_________________________________________________________________
dense_1 (Dense)              (None, 80)                32080     
_________________________________________________________________
dense_2 (Dense)              (None, 40)                3240      
_________________________________________________________________
dense_3 (Dense)              (None, 20)                820       
_________________________________________________________________
dense_4 (Dense)              (None, 6)                 126       
=================================================================
Total params: 160,566
Trainable params: 160,566
Non-trainable params: 0
_________________________________________________________________
Epoch 1/200
2018-10-28 22:30:07.572481: I tensorflow/core/platform/cpu_feature_guard.cc:141] Your CPU supports instructions that this TensorFlow binary was not compiled to use: AVX2 FMA
2018-10-28 22:30:09.754800: I tensorflow/stream_executor/cuda/cuda_gpu_executor.cc:897] successful NUMA node read from SysFS had negative value (-1), but there must be at least one NUMA node, so returning NUMA node zero
…
