…
	Trojan      1000
	Ransom      1000
	PUA         1000
	Worm        1000
	Backdoor    1000
================================================================================


================================================================================
Begin training...
================================================================================
Using TensorFlow backend.
_________________________________________________________________
Layer (type)                 Output Shape              Param #   
=================================================================
input_1 (InputLayer)         (None, 4096, 1)           0         
_________________________________________________________________
conv1d_1 (Conv1D)            (None, 3585, 100)         51300     
_________________________________________________________________
max_pooling1d_1 (MaxPooling1 (None, 358, 100)          0         
_________________________________________________________________
conv1d_2 (Conv1D)            (None, 223, 100)          1360100   
_________________________________________________________________
max_pooling1d_2 (MaxPooling1 (None, 111, 100)          0         
_________________________________________________________________
conv1d_3 (Conv1D)            (None, 110, 100)          20100     
_________________________________________________________________
max_pooling1d_3 (MaxPooling1 (None, 55, 100)           0         
_________________________________________________________________
flatten_1 (Flatten)          (None, 5500)              0         
_________________________________________________________________
dense_1 (Dense)              (None, 1024)              5633024   
_________________________________________________________________
dense_2 (Dense)              (None, 512)               524800    
_________________________________________________________________
dense_3 (Dense)              (None, 256)               131328    
_________________________________________________________________
dense_4 (Dense)              (None, 6)                 1542      
=================================================================
Total params: 7,722,194
Trainable params: 7,722,194
Non-trainable params: 0
_________________________________________________________________
Epoch 1/200
2018-10-29 13:50:25.552612: I tensorflow/core/platform/cpu_feature_guard.cc:141] Your CPU supports instructions that this TensorFlow binary was not compiled to use: AVX2 FMA
…
